model/nor_1001.pth (torch, 226009 bytes, 28 tensors)

conv1.0.weight f4 [3, 1, 3, 3]
00000000: a4d7 3fbe 1bc0 b33d 4402 ae3d b737 c93c
00000010: c017 953e cf26 ca3d 19c8 04bf c4c4 d13e
00000020: 2212 cc3d 4208 bebe 0866 2b3e b75b af3c
00000030: c023 3dbe 5231 a63e e3f3 173d 74da 9c3d
00000040: 3a6e 063f 28c7 5d3e 9c37 c6be c0e7 c0bd
00000050: 47d7 883d 6839 1dbf 718f a1bd b7bd 18be
00000060: 4af7 9bbe eee2 963e 98d7 59be
-0.18734604 0.087768756 0.08496526 0.0245627 0.29119682 0.098706834 -0.51867825 0.40970433
0.09964396 -0.37115675 0.1673814 0.021406038 -0.18470669 0.32459503 0.037097823 0.07658854
0.5251194 0.21658003 -0.38714302 -0.09419203 0.06681686 -0.6141572 -0.078886874 -0.1491612
-0.30462104 0.2947001 -0.21273649

conv1.0.bias f4 [3]
00000000: 2029 473c ae0a 4abd 92f1 6f3c
0.012155801 -0.04932659 0.014644997

conv1.1.weight f4 [3]
00000000: f52b a13f 5844 a83f af62 263f
1.259154 1.3145857 0.6499433

conv1.1.bias f4 [3]
00000000: a8c4 643e ef25 163e 2278 313e
0.22340643 0.14662908 0.17330983

conv1.1.running_mean f4 [3]
00000000: 672e da3e b4d2 173f 5a26 ebbe
0.42613527 0.5930588 -0.45927697

conv1.1.running_var f4 [3]
00000000: 19aa 613e 8ec0 543e 2fdb 6d3e
0.22037543 0.20776579 0.23228143

conv2.0.weight f4 [5, 3, 3, 3]
00000000: 7570 c43d 7732 b3bd 7855 fabc b404 8ebd
00000010: 4c1a 07bf 21f8 09be b3b4 4abb 3881 abbe
00000020: 821d 39be 77d6 8a3d ab64 f6be 61d5 ce3c
00000030: 5e46 ac3d 95fd afbe 4f7e a3be 84c8 a2be
00000040: c2b3 9ebe f1b9 87be 57f9 7ebd ac8f b0be
00000050: 48ae 0bbe 9c64 c7bd 76ad 75be dc71 943c
00000060: 9297 423b 53e4 04bf 3c0e ab3e c1ca b53e
00000070: 3198 0ebe baaf 4b3e 0374 8e3e 599e 333d
00000080: 09bb c8bc 6fcd e5bd 35b8 5b3e 89ed da3d
00000090: 4467 203f 30d9 dfbe 80f3 9e3c ef2a 073f
000000a0: 1ce4 11be e72a 913e bde1 6c3e f6c1 1abe
000000b0: 5b82 bf3e 70ac 203e d89b 67be 428a 823d
000000c0: dfa6 f53d e7e6 06be 1765 e53d 490a 713d
000000d0: 29a1 6abe 9646 523d 1f97 1fbf d2fe 103e
000000e0: 30fb 633d 1655 1bbe 44e2 fc3d e1e1 27bc
000000f0: d7fd 403d b8aa 423e d296 7fbe fcaf a1be
00000100: 23a8 c03d 193d 713e 7c25 92be cf75 753e
00000110: 84ea c73d b995 46be 3d2a c43e 3a02 25be
00000120: bc3b afbe f87a 07bf 892f b8bd 3cae 0e3e
00000130: c30e 9cbe 34f4 ab3e 3504 f13c 8485 99bd
00000140: 9ace 003e 7775 cd3d c8d5 d93b 1c8b 4bbe
00000150: ac61 3dbd 68ba 1f3d dd2e a2be ff20 67be
00000160: 7bd6 27be 25a8 8cbd fccf b4ba 4ffb 003f
00000170: bfc4 36be 9db9 7eba 4666 de3e bb13 28be
00000180: 22c6 cc3d 4dd8 e03e 5a8d 07be 56e2 7d3e
00000190: d3c5 9ebd d65b 0dbf 8f8a 0e3d 87e2 7bbe
000001a0: 3a81 bfbe fa5c e53d 1a2f 2abd 44da 88be
000001b0: 0dc8 5cbd 8b3a ce3e 8247 4fbe b7b3 b8be
000001c0: e767 933e 0665 653e 57e6 42be e9b9 f73e
000001d0: 888a be3d e82e 61be e841 37bd 1b6c 8ebc
000001e0: a6b2 54be a9c4 f73d 17b2 dfba 3e44 6abe
000001f0: 81a2 193e 4845 91bd 6f43 733d 73d6 2cbe
00000200: fdff a23d b01d 733d f75e e6bd fe93 9bbc
00000210: 213e 523e aa39 bcbd ed05 91bd
0.09591762 -0.0874986 -0.030558333 -0.06934491 -0.527745 -0.1347356 -0.003093046 -0.33497024
-0.18077663 0.06779187 -0.4812368 0.025248231 0.08411859 -0.34373155 -0.31932303 -0.31793606
-0.3099652 -0.2650905 -0.062249508 -0.34484613 -0.13640702 -0.097359866 -0.23991951 0.018120699
0.0029692394 -0.51910895 0.33409297 0.3550625 -0.13925244 0.19891253 0.27822885 0.043852184
-0.024503248 -0.11220824 0.21456988 0.106898375 0.6265757 -0.43720388 0.01940322 0.52799886
-0.14247173 0.28353044 0.23132987 -0.15113053 0.3740414 0.1569078 -0.22618043 0.06374027
0.11994719 -0.1317402 0.11200922 0.0588477 -0.2291304 0.051336847 -0.6233997 0.14159706
0.055659473 -0.15169176 0.12347844 -0.010246725 0.04711708 0.19010437 -0.24959877 -0.31579578
0.094070695 0.23558463 -0.28544223 0.23970722 0.09761527 -0.19393052 0.38313475 -0.1611413
-0.3422526 -0.5292201 -0.089934416 0.13933653 -0.30480012 0.3358475 0.029420951 -0.07496169
0.12578812 0.1003217 0.006647799 -0.19877285 -0.046235725 0.03899613 -0.3167638 -0.22571181
-0.16390412 -0.068680085 -0.0013794894 0.50383466 -0.1784849 -0.00097169896 0.43437403 -0.16413777
0.09998728 0.43915024 -0.13237515 0.24793372 -0.07752576 -0.55218256 0.03480011 -0.24598132
-0.3740328 0.111993745 -0.041548826 -0.26729023 -0.05390172 0.4027904 -0.20242122 -0.36074612
0.2879021 0.22401819 -0.1903318 0.48384026 0.093037665 -0.2199055 -0.044740587 -0.017385533
-0.20771274 0.12098057 -0.0017066625 -0.22877595 0.15003397 -0.070932925 0.05939048 -0.16878681
0.07958982 0.059354484 -0.11248582 -0.018991467 0.20531513 -0.09190686 -0.070812084

conv2.0.bias f4 [5]
00000000: ff6b b5be eaca 16be 6688 9b3e 007f 02bf
00000010: a20f e53e
-0.35433957 -0.14725843 0.303775 -0.50975037 0.4473849

conv2.1.weight f4 [5]
00000000: 435f 1b3f c21d b23f 8ef3 653f bdc7 973f
00000010: da42 433f
0.6069223 1.3915331 0.8982476 1.185783 0.7627388

conv2.1.bias f4 [5]
00000000: cc88 1c3d 7089 7c3e 829f ce3d b4e8 0f3d
00000010: ed94 54be
0.038216397 0.24661803 0.100890175 0.035134032 -0.20759936

conv2.1.running_mean f4 [5]
00000000: fad6 16c0 83a3 ea3e e6fa 00be ddc6 653b
00000010: 6f7f 283f
-2.3568711 0.45827875 -0.1259571 0.0035061159 0.6581945

conv2.1.running_var f4 [5]
00000000: 8207 0a40 0769 4840 586e f93f 17c7 7b3f
00000010: 874c f63f
2.1567082 3.1314104 1.9486799 0.9835066 1.9242104

conv3.0.weight f4 [8, 5, 3, 3]
00000000: 1089 8e3c 39b2 b3bd 24fb d7bd 8c09 c13d
00000010: 6483 9dbe b565 0b3e d049 08bc 30a9 02be
00000020: f4dd 693d 1854 39bd 22a0 23be d180 d5bd
00000030: b46c 9f3d 65aa 8cbb 581e d53c 00cd 6abc
00000040: e6d0 463e b023 bdbd 90b5 9fbc 2d25 da3e
00000050: a0df a1bd 3833 11bd b772 a93e bb7e 153e
00000060: e4a7 d2bc 3e01 b23d 0002 443d 113d 003e
00000070: 24da f03d 052d 99bd a00c b0bc df8c 8abe
00000080: b174 043e 065c 17be 4fc8 843d 6e50 1fbd
00000090: 1c7b 82bd 75c7 3bbe d070 3dbd e535 173e
000000a0: 80ac a63e 885c a43d bea3 81bd 01a0 9a3e
000000b0: d686 c23d cd1a 15be 37bb babd c421 6d3d
000000c0: f2bb de3d 494a d8bc 3cc3 e2bd 8887 8cbc
000000d0: e362 72be ed75 e5bd 68f3 f3bc 1b83 0bbf
000000e0: 0200 ce3d bcaa 643d 5e7c 6ebe 126c e53d
000000f0: 8a8c d63d bf67 5b3c 6c35 2c3d e8e4 e83c
00000100: 854e 30bd 5a53 903d 64bc a53d 651c a13e
00000110: d0bf a0bc e899 88bc 3557 12bd aac7 df3d
00000120: d7f6 16be 98bd 0c3d 8437 563d 5cb3 e4bd
00000130: f3da 73be e8d3 733d c8bf 07be b3a7 653d
00000140: a13b 0bbe 2213 82bd 5f58 98be 30bf 3e3c
00000150: 84b8 113d 5cb4 833e 5091 8fbc 70ef 8ebd
00000160: 0fcc 673e f23b dabd 4442 d6bd 71da 08be
00000170: 786f 6b3d 2be1 083e 5beb 1cbe db07 043e
00000180: 4044 7fbd 2299 debd a087 843d 7632 c63d
00000190: c36f bd3d 2b68 0c3e e09a de3c 95f4 103e
000001a0: 1a68 e83d fa29 b8bd 0a11 6f3e ea76 25bd
000001b0: 58ef dbbd cc79 d6be d218 b23d 9093 95bc
000001c0: 76fd 07bf 8860 843c 4f43 03be eb2d fcbe
000001d0: 9aa5 bb3d 1c55 4bbd 0230 90be 4256 0ebd
000001e0: a898 943d 1b13 0abe 9c5a 933d cd51 82bd
000001f0: 7281 4b3d fa04 be3d 9e38 0fbe 3c35 f6bd
00000200: 64a0 b03d e49c 533d 752c 8bbd 9177 0abe
00000210: d033 dabc 490c 8b3e fb0b b0bd ca4e aebd
00000220: cb02 1c3b 2ecc b03d 18ab 9b3c 1a79 06be
00000230: 720b ffbd 6285 63bd 755c 743e 78e7 983d
00000240: 8049 393b 50ec 043f 4853 c5bc d8a7 aabc
00000250: def6 11bd 80b5 e53c d225 d33d 674b c9bd
00000260: 66ce ec3d 045d 8d3d 3758 5a3e 5487 e0bc
00000270: 42a1 c63d 7c14 f73d c0ec 5fbb a421 0fbe
00000280: 6881 6b3d 360e f03d dc6b 3b3d 66f2 f13e
00000290: 866b 8c3d 5099 f73c c9df afbd 6824 bb3d
000002a0: c644 d9bd d8b3 8dbe c206 cb3d 04cb 343d
000002b0: 3a7d 243e 1010 013d 4eda d63d 4474 773d
000002c0: 4044 ea3b f27e 903d e66b 163e 8f06 92bd
000002d0: a2bb f3bd d5ef 063e a6c0 b1bd d02b e1bd
000002e0: 0b68 953d c0df 41bc e15a 173e ae97 923d
000002f0: 007f 243c b256 d9bd 69d7 d73e 0ef3 df3d
00000300: 80fd f23b 401e 243e f02b 443d d2e1 1bbd
00000310: d1b8 dabd 402a e83b 33c5 143e 04ff 353e
00000320: 70a4 46bc c38e 113e 6236 14be b239 cd3d
00000330: 9046 afbd deb9 dfbd 6cc0 673d 3825 abbc
00000340: 215b 9e3e 759b 90bd 7e00 eb3d db47 773e
00000350: e01d 1bbc f24b 57bd 4182 81be 56a3 9e3d
00000360: 10e7 493d c65f ef3e 7a9c c0bd 54bb 76bd
00000370: 3622 463e e0ba 56bc b823 013d 5959 bf3d
00000380: 1b15 113e 3e59 813d a6d5 9a3e e8ef d1bd
00000390: 008c 113b fb0f a83d 5a80 01be f48b 00bd
000003a0: 9cec 623e bc81 713d 6006 fa3c d4e9 253f
000003b0: 1ea9 db3d a05f 073c 1449 d83d 7eb8 fb3d
000003c0: a080 7cbc 5d2e 1dbe 7eb4 33bd 34b4 963d
000003d0: 7fa8 173e b82b 9f3c fc26 e9bd 2c14 a43d
000003e0: ef73 95bd 5b16 003e 42db 39be 4444 8fbd
000003f0: 186b afbd 40bb ab3e 4d2a 103e 25bc 093e
0.01739934 -0.08774228 -0.10545948 0.09425649 -0.30764306 0.13613017 -0.0083183795 -0.12759852
0.057096437 -0.045246214 -0.15979055 -0.104249604 0.07784405 -0.0042927735 0.026015446 -0.014331102
0.19415626 -0.092353225 -0.019495755 0.42606488 -0.07903981 -0.035449237 0.33095333 0.14599125
-0.025714822 0.08691643 0.04785347 0.12523295 0.11760357 -0.0747929 -0.021490395 -0.270606
0.12935139 -0.14781198 0.06483518 -0.038895063 -0.063711375 -0.18337806 -0.046250165 0.14766653
0.32553482 0.080254614 -0.063300595 0.30200198 0.09498374 -0.14561005 -0.0911774 0.05789353
0.108756915 -0.02640261 -0.11072394 -0.01715447 -0.23670535 -0.11204133 -0.029779151 -0.54496926
0.10058595 0.055826887 -0.2328963 0.112022534 0.104760244 0.013391434 0.042043135 0.028429464
-0.043043632 0.07047148 0.08092573 0.31466976 -0.019622713 -0.01667495 -0.0357277 0.10926755
-0.147426 0.0343605 0.052299038 -0.111670226 -0.23813991 0.05952826 -0.13256752 0.056068134
-0.13596965 -0.063513055 -0.29754922 0.011642262 0.03557636 0.2572354 -0.017525345 -0.06979263
0.22636436 -0.10655965 -0.10461858 -0.13364579 0.05747935 0.13367145 -0.15324156 0.12893622
-0.062320948 -0.108690515 0.06471181 0.096775934 0.092498325 0.13711612 0.02717346 0.141558
0.11347981 -0.089923814 0.23346344 -0.04039661 -0.107390106 -0.418898 0.0869614 -0.01825884
-0.53121126 0.016159311 -0.12818645 -0.49253783 0.09162445 -0.049641714 -0.28161627 -0.03475023
0.07255679 -0.1348385 0.07195017 -0.063632585 0.049683996 0.09278293 -0.13986441 -0.120218724
0.08624342 0.051663294 -0.06795589 -0.13522173 -0.026636034 0.2715781 -0.08596035 -0.085111216
0.0023805376 0.08632694 0.019002482 -0.13132134 -0.12453355 -0.055547126 0.23863395 0.07466024
0.002827257 0.51923084 -0.024087563 -0.020831987 -0.03563582 0.028040648 0.10309948 -0.09828835
0.11562805 0.06902507 0.21322714 -0.02740828 0.09698726 0.12064454 -0.0034168214 -0.13977677
0.05749646 0.117214605 0.04575716 0.47255248 0.06856446 0.030224472 -0.085876055 0.09137803
-0.106088206 -0.27676272 0.09913398 0.044138923 0.16063395 0.03150946 0.10490857 0.060413614
0.0071492493 0.07055463 0.14689597 -0.07130157 -0.119010225 0.13177426 -0.08679323 -0.10994685
0.07295235 -0.011833131 0.14780761 0.07157837 0.010040045 -0.10612239 0.42156532 0.10935031
0.0074154735 0.16027164 0.047893465 -0.038057156 -0.10679782 0.0070851147 0.1452835 0.17773062
-0.012124166 0.14214616 -0.1447387 0.1002077 -0.085583806 -0.10924123 0.056579992 -0.02089177
0.309289 -0.07060901 0.11474703 0.24148504 -0.009467572 -0.05256266 -0.25294688 0.077459976
0.049292624 0.46752757 -0.094048455 -0.060237244 0.19348988 -0.013106078 0.031528205 0.093432136
0.14168207 0.0631585 0.30241126 -0.102508366 0.002220869 0.08206173 -0.12646618 -0.03138347
0.22160572 0.058961615 0.030520618 0.6480992 0.10725616 0.008262545 0.105608135 0.122910485
-0.015411526 -0.15349717 -0.043873303 0.0735859 0.1481037 0.019430026 -0.11384389 0.0801166
-0.07297503 0.12508528 -0.18150046 -0.069954425 -0.085653484 0.33541298 0.14078636 0.13450678

conv3.0.bias f4 [8]
00000000: dfe7 113e 2360 d7be 6483 9ebe 0276 813d
00000010: 5518 7c3e 9dbf 9d3d d42f be3e 813f 41bd
0.14248608 -0.42065534 -0.30959618 0.06321336 0.24618657 0.07702563 0.37145865 -0.047179703

conv3.1.weight f4 [8]
00000000: 5474 a83f ab63 ae3f 579b 6a3f 061b 2a3f
00000010: 0432 683f 4a19 773f fbc1 503f debc 823f
1.31605 1.3624166 0.9164328 0.66447484 0.9070132 0.96522963 0.8154599 1.0213888

conv3.1.bias f4 [8]
00000000: 6564 a43e 1795 5abd dd4e 583d 4a88 e53c
00000010: b588 52be 3d3a b5bd 72a6 16be a159 14be
0.32107845 -0.05336484 0.052809585 0.02801909 -0.20559962 -0.08848999 -0.14711931 -0.14487316

conv3.1.running_mean f4 [8]
00000000: 4f73 423f 8c7d cebf d7ec b3bf 691a a83f
00000010: d15c db3f 8787 cc3f 7395 02bf 0051 d8bf
0.75957197 -1.6132064 -1.4056653 1.313306 1.71377 1.597886 -0.5100929 -1.6899719

conv3.1.running_var f4 [8]
00000000: 9191 d53d 319c f33e aaec 283d 41db b43e
00000010: 2aa7 0f3f 448c 1f3f 01be 273e baa1 053f
0.10428155 0.47580102 0.041241325 0.35323527 0.5611445 0.62323403 0.16381074 0.521999

conv4.0.weight f4 [16, 8, 3, 3]
00000000: 0699 193d 3ea6 80be b050 9ebd b130 c73d
00000010: 8e25 75bd 0da2 e03d c248 473d cd60 823d
00000020: 3254 c9bd d2c4 16bd cb66 95be 9f06 b1bd
00000030: 93eb d6bd 30c0 56be 3cca 2dbd ad09 cb3d
00000040: 6b66 2dbe ae47 27bd fcef f2bc 00f2 a13e
00000050: 6426 e5bd 48a6 56bc 2efe de3d 808f bb3b
00000060: 14ab 803c 4b8c cb3d bc06 ca3c 4687 63bd
00000070: 3ecc 95be a4b3 823c 1e30 37bd 7896 88bd
00000080: d259 153d c047 41bd 19ca 7bbe 7648 c5bd
00000090: d5ac b53d 6c9a 523d 07e9 e33d d87d 473c
000000a0: 91f7 79be d1af e63d 2c0e 99bc f713 a0bd
000000b0: c87f 5f3c 72a3 123d 28c7 16bd e62b 9fbd
000000c0: 23ea ae3d e4d0 5bbe 1262 90bd 78eb 0cbc
000000d0: 04d7 4cbd df43 bb3d a46e b9bd c186 a1bd
000000e0: 8bca e23d 7843 28bc 92d3 913e 3426 afbd
000000f0: d103 e33d eaf0 5abe 0299 083d 63d0 bc3d
00000100: a56e a7be dc6c 90bd c8e8 8dbd 7a37 b2be
00000110: 8c60 e8bc b069 903b 2e1f 0fbe 86a8 87bd
00000120: 5915 c4bd d55d 05bf 163f 603d 08f8 323c
00000130: f0d6 79be 9014 94bb ecf1 babd 9ae9 70be
00000140: 6004 b8bd 2b13 c93d 508b 9ebe f883 1abc
00000150: c1a3 b33d 77d5 963e e818 9fbd fd7e a03d
00000160: 36d6 0ebf 0b3d d83d 84f7 833c 5cc8 533e
00000170: 106d 32bd aecb a6bd f5f4 983a 4038 16bc
00000180: 1348 b33d b68a 81be c4bd 943c 4cae 41bd
00000190: 1732 4abd e861 e7bd e0ea 6e3b c238 bbbc
000001a0: edad d0bd f5b5 bc3d 3247 423d d804 0f3c
000001b0: c1d9 eb3d 4ac9 2e3d 1c2e 11bd 086b f8bc
000001c0: 0319 50be 28c5 6fbd a396 e43d 8c35 e2bd
000001d0: edaa dd3d 985d 14bc db4c 50be 6ac9 0ebd
000001e0: 3697 7b3d 6d38 f23d e7ef a93d 00fa 373b
000001f0: 2226 7c3d 3dd9 c4bd 738e 6bbd 5274 97be
00000200: 7c24 b6bd 1b51 71bd cdff f33e 3008 08bc
00000210: 90dc 82bd de9a d4be f259 003d 17d2 8ebd
00000220: d4a8 82be 84a9 f53c 8696 3c3d daf2 32be
00000230: bce3 cc3c 211c 953d ed34 9cbe 56e7 073d
00000240: 09d2 9ebd 1e21 f0bd b8b8 bcbd 6286 1bbd
00000250: 88f8 293d 0758 c13d 13d3 e3bd e8d0 96be
00000260: cabe 3c3d 3a02 e6bd 6454 063f 323a 003d
00000270: cc0e af3c f0e0 39be f0e7 823b 8c2d a93c
00000280: 69da 153e d8de 1f3c 845a 46bd 54c9 25be
00000290: daea 753d 6766 ba3d fdb4 aebe d6c9 0f3d
000002a0: d6db 81bd e0af 95bd 9f35 b83d 45bf b0bd
000002b0: 44eb 7e3e 3699 43bd 338b 943d 791c 123e
000002c0: be00 adbd 2626 2bbd b0ae f23d e6bd 08bd
000002d0: 2e7a 093d d098 453e bd55 9c3d 5956 e9bd
000002e0: a7f7 353e 0fe0 c0bd 38b7 b0bc b77a 68bc
000002f0: 6291 393d 4f34 993d dcad d83d d32e e13d
00000300: 6951 e63d 4496 4a3c 6e87 353d 2a3b 4a3d
00000310: c6d5 8abe c527 bd3d c716 993d 4051 09be
00000320: 81ad c8bd 3515 983d c12b 9abe 1551 aa3d
00000330: 001f 303b e079 47be c876 4d3c 346b a63c
00000340: 9319 3b3e fb15 96bd 12cd 303d 6860 06be
00000350: c417 ca3c ba89 59bd c7ec 083e 47ac e9bd
00000360: d52a c33d 4ad2 a43e 4659 05bd db32 aa3d
00000370: ebb9 2a3e 4de0 923d b41d bebd 9bb3 023e
00000380: b4ea d6bd a471 d33c 00a1 403e 75b6 c03d
00000390: 7e22 443d bc39 013e 55bf c23d 9973 953d
000003a0: 32a0 6e3e 58a2 3bbc f87e 0abd be4f 03bd
000003b0: 6a83 4e3d 4a07 0bbd 9361 8b3c b414 923c
000003c0: c8ad 303c 81b9 1f3e 34f0 923c a564 d7bd
000003d0: 6442 823e b12b 64bd 19ce d4bd 928f 4bbd
000003e0: 66de 403d 5f56 c83d 32cf 103e 6eb0 323d
000003f0: ead7 223d 157e d93e f84f 023c 282d 1cbd
0.03749945 -0.25126833 -0.07730234 0.09726084 -0.059850268 0.10968409 0.04865337 0.063661195
-0.09830512 -0.036808796 -0.29179987 -0.08643841 -0.10494151 -0.20971751 -0.042429194 0.09913955
-0.169336 -0.040839843 -0.02965545 0.31629944 -0.11188963 -0.013101168 0.10888325 0.0057238936
0.015706576 0.09938868 0.024661414 -0.05554893 -0.29257387 0.0159548 -0.044723623 -0.06669325
0.036462612 -0.047187567 -0.24588813 -0.096329615 0.08870856 0.0514168 0.11128431 0.012176
-0.24410845 0.11264003 -0.018683515 -0.07816308 0.013641305 0.035800405 -0.036811024 -0.07772045
0.08540752 -0.21466404 -0.070499554 -0.008601062 -0.050009742 0.09143805 -0.09054306 -0.078870304
0.11073788 -0.010269992 0.28481728 -0.085522085 0.11084712 -0.21380964 0.033349045 0.09219434
-0.32701603 -0.07052013 -0.06929165 -0.3480795 -0.02836635 0.00440713 -0.13976738 -0.0662394
-0.09574384 -0.520963 0.054747663 0.010923393 -0.24398398 -0.004519053 -0.09128174 -0.23526612
-0.089852095 0.09818109 -0.30965662 -0.009430878 0.08771468 0.29459736 -0.07768422 0.07836721
-0.5579561 0.10558518 0.016109236 0.206819 -0.04356104 -0.081443176 0.0011669683 -0.0091686845
0.087539814 -0.2530114 0.018156894 -0.047285363 -0.049364176 -0.11297971 0.0036455914 -0.022854213
-0.10189424 0.09214393 0.04743118 0.008729182 0.11516143 0.042672433 -0.035444364 -0.030324474
-0.20322041 -0.058537632 0.11161544 -0.110453695 0.10823617 -0.009055518 -0.20341818 -0.034860052
0.061423503 0.118271686 0.08297711 0.0028072596 0.061559804 -0.096117474 -0.057508897 -0.29580933
-0.088936776 -0.05891524 0.47656098 -0.008302733 -0.06389725 -0.41524404 0.03133578 -0.06973665
-0.2551943 0.029988058 0.046041988 -0.17475453 0.025010936 0.07280756 -0.3050913 0.033179604
-0.07754905 -0.117250666 -0.0921492 -0.037969954 0.041496783 0.09440618 -0.111242436 -0.29456258
0.046080388 -0.112308934 0.5247252 0.0313055 0.02136936 -0.18152213 0.0039949343 0.020651601
0.14634098 0.00975772 -0.048426166 -0.16190082 0.060038425 0.09101563 -0.34122458 0.035104595
-0.063407585 -0.07308936 0.089946024 -0.08630232 0.24894434 -0.047753535 0.07253113 0.14268674
-0.08447407 -0.041784428 0.11849725 -0.033384226 0.033563785 0.19296575 0.07633541 -0.11393423
0.17770253 -0.09417736 -0.02157174 -0.014189414 0.045304663 0.0748068 0.10580036 0.10995259
0.112459965 0.012364928 0.04431861 0.04937283 -0.2711622 0.09236101 0.074750476 -0.134099
-0.09798718 0.0742592 -0.30111507 0.083162464 0.0026873946 -0.19480085 0.012540527 0.02031479
0.18271475 -0.07328411 0.04316432 -0.13122714 0.024669535 -0.053109862 0.13371573 -0.114098124
0.09529654 0.32191688 -0.03255584 0.08310481 0.16672485 0.07171688 -0.09283009 0.12763827
-0.10493985 0.025811024 0.18811417 0.09409801 0.047884457 0.1261968 0.0950915 0.07297439
0.23303297 -0.01145228 -0.033812493 -0.03205847 0.050418295 -0.0339425 0.0170143 0.017832138
0.01078362 0.15598108 0.017936803 -0.10517243 0.25441277 -0.05570573 -0.103908725 -0.049697466
0.047087096 0.09782099 0.14141539 0.043625288 0.039756693 0.42479005 0.007953636 -0.038129

conv4.0.bias f4 [16]
00000000: 9bae cd3d 8d61 51be cc8f 08be 777c cc3e
00000010: c796 f9bc ad5a 083e 982a 253e c667 8cbe
00000020: 7e88 873d 5bf1 86be 0258 c6bd 360a 243f
00000030: 0156 a03d b9e4 0e3e b518 c03e ccf8 46be
0.10043069 -0.20447369 -0.13336104 0.3993871 -0.030467404 0.1331584 0.1612953 -0.27422923
0.06617831 -0.26356015 -0.09684755 0.6407808 0.07828904 0.13954438 0.3751885 -0.19430846

conv4.1.weight f4 [16]
00000000: c4c1 763f 3e3b a63f 84e1 b23f 3165 a73f
00000010: 459e 493f 600d 7b3f 5013 c03f d304 233f
00000020: 2a40 8f3f f47c 713f bdb6 843f 55a0 a13f
00000030: fa54 933f 9ff2 8b3f 13dd 5e3f 60d7 8e3f
0.9638941 1.2986829 1.3975072 1.3077756 0.78757125 0.98067284 1.5005894 0.63679236
1.1191456 0.9433129 1.0368267 1.2627054 1.1510308 1.0933417 0.8705608 1.1159477

conv4.1.bias f4 [16]
00000000: d7d9 adbd aed5 923e 49e5 c73e ec4a 933e
00000010: 4b63 52be 02a0 a83d 9f4a 043f 98d9 bdbe
00000020: f937 9c3d ffc6 4ebd 12fd 6c3e 2f65 f33e
00000030: 89b5 3a3e 703a b53d 43b7 663e d237 443e
-0.08488815 0.2867865 0.39042118 0.28768098 -0.2054569 0.08233644 0.5167636 -0.37080073
0.076278634 -0.050482746 0.23143414 0.47538134 0.18233313 0.08849037 0.22530846 0.19161919

conv4.1.running_mean f4 [16]
00000000: 21df 80bf 432a d0bf 608b 60be adf3 fd3f
00000010: 1d58 273d c291 f1be d3d7 89bd d994 9dbf
00000020: fca2 6f3f 5b16 1a3f 08e5 003e 3ddd 91bd
00000030: 30a2 43bf e869 12bf 9f16 843f f487 45bf
-1.0068094 -1.6262897 -0.21928167 1.9839989 0.040855516 -0.47181517 -0.06730618 -1.231105
0.9360807 0.6019036 0.12587368 -0.07122276 -0.76419353 -0.5719285 1.0319403 -0.77160573

conv4.1.running_var f4 [16]
00000000: ebc2 b53e b4a8 2c3f 0967 8b3e b33d 443e
00000010: d2c9 ad3e cfb1 223f 7690 c33f bb51 0a40
00000020: 96d3 273f aaea 143f 8105 993f 66b0 cc3f
00000030: 46f4 943f f1b4 8a3f 80b1 8b3f 8eeb ef3f
0.35500273 0.6744492 0.27227047 0.19164161 0.3394304 0.63552564 1.5278461 2.1612384
0.6555723 0.5817057 1.1954805 1.5991333 1.1637046 1.0836469 1.0913544 1.874376

fc1.0.weight f4 [160, 320]
00000000: 304b 7e3e d3dc 83be dbf0 c03e 0506 983e
00000010: 86d5 ba3e bd4b f33e 09ef 123e 29e7 fabe
00000020: 7dd5 603d 33d8 ba3e 07cd af3d 515b 52bc
00000030: 87cf f23d 85be 213e 136d 9c3e 511f 893e
00000040: 3bf9 363e 4468 d43d 3dc0 52bf 9ec7 4abf
00000050: 5450 a93e 3587 bbbe 6acb 733e a461 973e
00000060: 5ab8 a43e 79de ae3e e4b7 263e 5a1d c73d
00000070: f3d4 b03c 85c0 db3e 7c57 9b3e 06d8 3e3e
00000080: 73cc 7f3e c908 5a3e fc3a 8d3e 863e c13e
00000090: 7e00 ecbf 39b3 e1bf f4f4 55bf 0627 cb3e
000000a0: 33da 17be 86fa e63e d292 963e 5ec8 ba3d
000000b0: 1208 883e b7a4 083e 9282 043e 0241 183e
000000c0: fb55 313e f51a d93d c0c2 2dbf 2b14 6bbf
000000d0: f0c8 a13d 0b0c 7d3e 5c96 c23e 3d69 e03e
000000e0: 808b d03e a02f 2d3f dfaf e53e 7da7 b33e
000000f0: f58d 283e ca40 233e 9c49 9fbe aa7a 783c
00000100: af82 a23c 7134 e23b 4970 253e 52a2 a73e
00000110: 30ca 043f 10aa 063f 99dc e73e 3a89 e93e
00000120: d957 823e f0a1 903e 9397 843e 9855 ca3a
00000130: e4b2 dd3d 988e 3a3d 7e4b 64c0 ec6a 6f3d
00000140: f7e6 5b3d 2452 ce3d 8b37 123e d630 a43d
00000150: 0ee2 3e3e cf42 983e f535 9f3e ac65 bf3e
00000160: dfa7 00c0 c6cf a63e 2c66 8a3e deb1 593e
00000170: 96cf 53be 9b2a 64be 6a91 5abe 46f0 663d
00000180: 23f0 b93d 6b00 e53d 7f62 1b3e 44e8 2c3e
00000190: a4ea 913e c9ff 813e 1d18 503e 388c 633e
000001a0: 4489 e13e eecf 853e 3187 c0bd b47c f2bd
000001b0: 90fc 42be 1a95 53be a1f6 263e 7522 ad3e
000001c0: 6a73 4d3e b35c 003e 73d4 e83d 3838 1f3e
000001d0: b798 163e 8773 c13d 385b c83d 19f8 5f3e
000001e0: 65fd a63e 361b e13e 3816 513e 58e9 e8bd
000001f0: 7ef4 093d 81b0 9f3d dd78 363e 191b 2d3f
00000200: e3ac 293e 6e4f be3d aac7 133d 6b67 483e
00000210: fd28 623e 49e8 353e 452c 753e c851 9d3e
00000220: 2731 083f 27b2 6b3f d9fc 663f 4ecf 053f
00000230: 933e ca3d c759 433e 375a 163e d163 8c3d
00000240: 8878 303d c02e d13b 41fb 29c0 9c97 76c0
00000250: f495 7ac0 71bc 61c0 4744 af3e 9037 213e
00000260: a5e0 24be 1943 40bd bacd babe 5d36 a2be
00000270: 5bd0 b1be 940f 81be c511 c6bf ab2d 6f3e
00000280: 18da 8bc0 ad13 f23e 04cd d6be 5c14 03bf
00000290: 6ee4 52bf e7ed 20be 9f66 72bf 513f 98bf
000002a0: 93bd b7be 9d3a 69be fa14 963e ed64 cf3e
000002b0: 45b6 a4be ba1b c3bc 58cd b13d a800 963d
000002c0: 52f5 483e c8a5 423e 9342 443e df38 9ec0
000002d0: d9fe d13d 5d43 cc3e 4e76 913e 6c0e 5ebf
000002e0: 2e67 50bf f76c 4abf 61f9 69bf 1d1d d7be
000002f0: 23ef 21bf 657b 1b3e 9bfe 193e a37c a33d
00000300: 4972 97be 2a87 f2be 9ba1 56be 4e1b a5be
00000310: 690c efbc d988 8339 a770 d03e 3bc9 a7c0
00000320: e210 9ebe 7703 493e f3a8 a0be 6def c43d
00000330: f5f6 8abd 729f 893e 9ec7 9c3e b5c9 6f3e
00000340: 4ebf 8bbf 05b4 87bf 0b1f 163e 6112 0b3e
00000350: b9cf 963e 2afb 343e d584 b43e a4c2 bd3e
00000360: 6490 8cbe 218b 083f 0d46 103f 2d79 b83e
00000370: f8f5 f03e 54e6 463e e5c7 c03e 4c90 d63e
00000380: fdff 963e 8151 683e 36eb f53d a1f0 b9be
00000390: a97a 53bd 5bcd bb3e 77b8 6b3e 6fa5 dc3e
000003a0: 27ab 823e 975e 573e 9ef5 563e 8b5c 823e
000003b0: 8e07 633e b397 e03e 0fcd b33e 0caa ef3e
000003c0: d5ad 623e e5f6 d43e 189b 2d3e 7605 683e
000003d0: 6a56 a73e 26a2 ae3e bc0a 33bf a544 1bbf
000003e0: 15f9 8fbe bc50 c63e 61b2 19be ac70 b4be
000003f0: 9ed8 49bf cb68 b9be ff3e 09be 7a8f c73e
0.2483337 -0.25754413 0.37683758 0.29692093 0.3649103 0.4751872 0.14348997 -0.49004486
0.0548911 0.36493072 0.08584028 -0.012839154 0.11855989 0.15795334 0.30551967 0.26781705
0.17868511 0.103714496 -0.8232458 -0.7921084 0.33069098 -0.36626592 0.23808065 0.2956668
0.321719 0.34154108 0.16281086 0.09722395 0.021585917 0.42920318 0.30340183 0.18637094
0.24980335 0.21292414 0.27584064 0.37743014 -1.843765 -1.763282 -0.83576894 0.3967821
-0.1482933 0.4511301 0.2940889 0.09120248 0.26568657 0.13344084 0.12940434 0.14868549
0.17317955 0.10600845 -0.6787529 -0.9182765 0.07899654 0.24711625 0.3800534 0.4383029
0.4073143 0.67650795 0.44860741 0.3508872 0.16460402 0.15942684 -0.31110847 0.015165964
0.019837705 0.006903224 0.16156115 0.32741028 0.51871014 0.52603245 0.4528549 0.45612508
0.25457647 0.28248549 0.25896892 0.0015436886 0.10825136 0.045546144 -3.5671077 0.058451578
0.053687062 0.10074261 0.14279 0.08017127 0.1864092 0.2973847 0.31095853 0.37382257
-2.010246 0.32580394 0.27031076 0.21259257 -0.20684657 -0.22281878 -0.21344534 0.056381486
0.090790056 0.1118172 0.15174292 0.16885477 0.2849933 0.2539046 0.20321698 0.22221458
0.44050038 0.261352 -0.09400786 -0.118401915 -0.19041657 -0.20662346 0.16305019 0.3381535
0.20063558 0.12535362 0.113686465 0.1554879 0.14706694 0.09445863 0.097830236 0.21871985
0.326152 0.43966073 0.20418632 -0.11372632 0.03368043 0.07797337 0.17819543 0.6761947
0.16569857 0.09292494 0.036079086 0.19570701 0.22085948 0.17764391 0.23942669 0.30726457
0.532 0.92068714 0.90229565 0.52269447 0.09875216 0.19077216 0.14682852 0.06854976
0.043083698 0.006383747 -2.6559603 -3.8530035 -3.9154024 -3.5271266 0.3423178 0.15743852
-0.1610132 -0.04693899 -0.36485082 -0.316821 -0.34729275 -0.25207198 -1.5474173 0.23357265
-4.370373 0.47280636 -0.4195329 -0.5120294 -0.82379806 -0.15715753 -0.9468784 -1.1894323
-0.3588682 -0.22776265 0.2931288 0.40506688 -0.3217031 -0.023816932 0.08681744 0.07324344
0.19624832 0.19008553 0.19166021 -4.9444423 0.102536865 0.39895144 0.28410572 -0.86740756
-0.8140744 -0.7907252 -0.91396147 -0.420144 -0.6325552 0.1518379 0.1503853 0.07982757
-0.2957938 -0.47368747 -0.20960085 -0.32247394 -0.029180722 0.00025088227 0.40710947 -5.2433143
-0.30872256 0.19630228 -0.31378898 0.09615979 -0.067853846 0.2687946 0.30621046 0.23416789
-1.0917757 -1.0601813 0.1466028 0.1358123 0.29455355 0.17673936 0.35257593 0.37062562
-0.2745391 0.53337294 0.5635689 0.3602995 0.4706266 0.194238 0.37652507 0.41906965
0.2949218 0.22687341 0.120077536 -0.36316398 -0.05163065 0.3668011 0.23019587 0.43094966
0.25521204 0.21032177 0.20992133 0.2546123 0.2217085 0.43865737 0.35117385 0.46809423
0.22136624 0.41594616 0.16953695 0.22658333 0.32683116 0.34108084 -0.69938254 -0.6065162
-0.28119722 0.3873347 -0.15009452 -0.35242212 -0.78846157 -0.36212763 -0.13402937 0.3897665

fc1.0.bias f4 [160]
00000000: 81df f93e 7280 bc3e 7c64 dc3e ae4c ae3e
00000010: 2e8f c83e 83ee 99be 27be cd3e d688 e63e
00000020: 0abf 843d 61ac b73e 8dcc fdbe 840f 023e
00000030: 9906 e73e a0ca 32be bde9 0a3e 637c 7b3e
00000040: 564e dbbe 62f9 9e3e 376b a9be cd63 d7bd
00000050: 1143 b73e baa6 ba3e 6aef a43e 5cf9 353e
00000060: 886b e3be ce21 943e e81a 32be 5b13 8f3e
00000070: 666e c1be e598 ddbe 5079 32be 0903 89be
00000080: e254 cabb 99fa b6be 7d95 08bf f68f ef3e
00000090: 7d1a 493e cbde 75be 3cba a53e 35c6 063e
000000a0: aa7d a63e 5104 a0be ccab 013f f508 debe
000000b0: 65a4 c93e a7e1 dd3e 4286 eebd 98ef 463e
000000c0: c418 fd3e 93a8 643e eefd 093f 821a a53e
000000d0: e5bd af3e 0dda dc3e d7aa a53e 7a55 bb3b
000000e0: 98a5 1e3e f807 d0bd 8c63 a0be 8b4d 9ebe
000000f0: a9b3 9ebe 4a00 10bf 4266 c2be aaf0 94be
00000100: 3d28 9ebe 047b 983e bd10 80be a890 e73d
00000110: 9673 03bf 17d8 fd3e 32e3 943d b25c 8bbe
00000120: c358 093f 7f1a 003f 44da 1a3e 4708 983d
00000130: 7412 be3e c9f5 373e 57c2 ccbe 48c5 ee3e
00000140: 41d7 5e3e c749 093f 6a3c 06bf 7562 983e
00000150: b957 94be dd35 f0be 595e 693e c8f1 a73d
00000160: ee00 b5be 56fa fd3e d4d2 90be d0ed 4f3e
00000170: c41c f7bd e458 b5be f560 0bbe b8a2 023f
00000180: f9fe cc3e 3b16 833e ddf6 ebbe 3d55 e9be
00000190: d562 973c 1bfe f83e ad2f bcbe 60b4 283e
000001a0: d6f3 9cbe 1d6c 98be 1485 22be 4471 4fbe
000001b0: f4fe 07bf 5b59 063f cb55 bdbe 215d 883e
000001c0: b13b 003f 1af2 8c3e 9205 d53e f4c7 a53c
000001d0: ee16 a8be 2bb2 c1be dbca bebe a94d 9bbd
000001e0: 7a6b 053f 9f56 d2be 70b6 2cbe 4133 8cbe
000001f0: cc28 c3be 19e6 3c3e 7b68 df3e b024 a6be
00000200: 41f1 113c 686f b1be 245e ccbe f301 c2be
00000210: 92b2 fa3e 773c a83e 6fbf c23e d6b2 21be
00000220: 8946 143e 0a65 48bd 85ca 10bf 9b58 d23e
00000230: 4d38 4bbc 2e02 eebe f905 fcbe 46f3 54be
00000240: 5eab 47be 0005 13bf 8d9c 9a3d c0b8 edbe
00000250: 5e8f 163e c016 83be b74a 91be 0dd0 e6be
00000260: 4381 c03e d4a0 ec3e 3878 a03e 3f13 aebe
00000270: 59c4 183e 8385 0b3f 3549 efbe c05e 46be
0.48803332 0.36816746 0.43045413 0.34042877 0.39171737 -0.30064783 0.40184137 0.45026273
0.0648175 0.35873702 -0.49570122 0.12701231 0.4512222 -0.17460108 0.13565727 0.24559169
-0.42833203 0.3104964 -0.3308961 -0.10517082 0.35793355 0.36455327 0.32213908 0.17770904
-0.44417977 0.2893204 -0.17393076 0.27944455 -0.3777954 -0.43280712 -0.1742909 -0.26760128
-0.0061746696 -0.35738066 -0.533531 0.4678952 0.1963901 -0.2401077 0.32368648 0.13161547
0.3251775 -0.31253293 0.50652766 -0.4336621 0.39383236 0.43336222 -0.116467014 0.19427335
0.49432957 0.22329931 0.5390309 0.32246786 0.34324566 0.4313511 0.32356903 0.0057169767
0.15492857 -0.1015777 -0.31325948 -0.30918536 -0.30996445 -0.5625044 -0.37968642 -0.29089862
-0.30890074 0.29781353 -0.2501277 0.11306888 -0.51348245 0.49578926 0.072698966 -0.27219158
0.53651065 0.5004043 0.15122324 0.07423454 0.37123454 0.17964853 -0.3999202 0.4663489
0.217618 0.536282 -0.52435935 0.29762617 -0.28973177 -0.46916094 0.22789897 0.08200413
-0.35352272 0.49605054 -0.2828585 0.20305562 -0.120660335 -0.3541938 -0.13611205 0.5102954
0.4003828 0.25602898 -0.4608678 -0.45572844 0.018479744 0.48631367 -0.36755124 0.16475058
-0.30654782 -0.29769984 -0.15871078 -0.20258051 -0.531234 0.52480096 -0.36979517 0.26633552
0.5009108 0.2752846 0.41605812 0.020236947 -0.32829994 -0.37831244 -0.3726414 -0.07583172
0.5211712 -0.41081712 -0.1686647 -0.27382854 -0.38117063 0.1844715 0.436344 -0.32449865
0.008907617 -0.3465531 -0.39915574 -0.37892112 0.48964363 0.3285863 0.38036677 -0.15790877
0.14480032 -0.048924483 -0.5655902 0.41083226 -0.01240356 -0.46486038 -0.49223307 -0.20795926
-0.19498965 -0.57429504 0.07549391 -0.46430016 0.14703128 -0.25603294 -0.28377315 -0.45080605
0.3759862 0.46216452 0.3134172 -0.3399906 0.1491865 0.545006 -0.4673554 -0.19372082

fc2.0.weight f4 [5, 160]
00000000: 1eae d8b9 90ac 3238 a83f 22b8 4e2b 30ba
00000010: 533d 1aba 91f3 3ab9 6cf8 10b9 362d 67b9
00000020: bc18 2039 635a e1b8 1cc1 bd38 bd4b 51b9
00000030: 1cdc 3eb9 07a0 06b9 21cc 05ba 12f3 13ba
00000040: d32d 2a39 de00 e8b8 4187 41b3 1a77 e538
00000050: e65b af38 42b0 57b9 ea9c cdb8 c0ea 66ba
00000060: bb62 7539 ead9 2739 2478 cab9 3278 f2b7
00000070: 0a6d b138 3826 75b8 6673 9437 1cc7 d7b8
00000080: 0779 023a c63d 1138 f685 4b38 f7d0 8038
00000090: bf90 c139 0036 0a3a b159 68b9 cd52 d939
000000a0: 6554 2bb9 2035 c239 e74f c2b9 977a a3b8
000000b0: 7957 60b9 b4c1 0738 a5ab e7b8 48e3 833a
000000c0: c3d5 a1b9 7c87 18ba 3950 94b9 6d97 23b9
000000d0: 4d38 11ba 38c9 f837 f3b1 5db9 f08a fcb8
000000e0: 762f f939 f55d 2fb9 8754 ac37 ce39 48b9
000000f0: 272a 95b5 d481 75b8 a694 2839 397f 9c39
00000100: 3331 083a 3669 2cb8 8ff6 8339 66e2 1fba
00000110: ecbf 4e38 5558 2bb9 4ac6 11ba 46e2 1f39
00000120: 3ad6 72ba da1d a2b9 26a9 bbb8 8700 e8b9
00000130: e096 99b9 395b 3eba bd3f 38b8 d8d2 44b7
00000140: 7fc7 acb8 52bf 94b9 9c17 bf39 c900 6ab9
00000150: a558 a638 584b 4737 8600 9cba 06ac 31ba
00000160: e942 46b9 230c c738 c849 3d39 7b29 06ba
00000170: 7792 c2b8 a33d c538 7d33 013a a993 35b9
00000180: 77ee dbb8 e21c 1aba cafc 8038 39f3 5039
00000190: 9c49 0e3a ddc2 24b9 8ef6 2b39 cc27 13ba
000001a0: b497 1838 a0a5 3839 3b49 d839 f0a8 0638
000001b0: 3896 2839 3fe3 d4b8 2ef7 d738 82a1 5d39
000001c0: 4f32 74b8 6fc1 48b9 6876 b2b9 39ec cb38
000001d0: e04c 7238 fc83 1f38 3b90 f839 1aa8 8eb9
000001e0: e441 a638 82a7 ef38 29eb 053a fcc7 eb39
000001f0: 7085 2ab8 65aa 21b8 4120 1ab9 4ebd c1b9
00000200: cb9e 09ba bba3 1337 7169 a339 6f15 2cb8
00000210: 45fd 01b9 7d6f 69ba ded9 52b9 8a40 11ba
00000220: 63bc d039 0a10 8bb9 00e9 e1b8 8937 a838
00000230: 1bf1 a937 47be 9d38 7fbf 1e39 ed2a c139
00000240: 8af2 2b36 c7b7 e638 a878 ffb9 0adb 9fb7
00000250: 9c45 013a 3352 b338 ac46 be36 4b1c 8039
00000260: d8ea 6a38 52b9 a1b9 e8ca 10b9 f5d8 21b8
00000270: 8ede 5aba 2e6a 38b8 1c8f a038 cb7d fd39
00000280: 496e d0bd b0da 1e3e 5768 20be 2953 c4bd
00000290: aa98 923d f6e3 423e abbc 05be 6a36 e5bd
000002a0: 038b 38be b7fc 2dbd 941a 133e 844f 52be
000002b0: d532 1cbe 8267 a53d d003 513e 0a19 433e
000002c0: 670d e63d 93d1 99bd fd3a 4c3e 54b8 39be
000002d0: b4c4 44be 84e2 84bd 78da 6abe 016f 36be
000002e0: b8c2 f33d d837 9cbe 8080 9b3d c630 7cbd
000002f0: 59b5 8d3d db9c 2d3e d600 1b3e 953b a23e
00000300: a29e 3bbe 9363 8a3e 2507 243e 3298 11be
00000310: c519 1abe 6c11 3abe 9bf2 27be 7392 42be
00000320: c496 57be 0692 35be 26d8 eabd 983e 513e
00000330: ed6a d2bb e005 28be 0776 413d affa babd
00000340: 32a1 00be 9d60 683e f380 00be afbe 56bd
00000350: 7719 88bb cbe2 41be 905a 4cbd 75e2 babb
00000360: 603d 1dbe 69ab 693d 6ecf 503d 1d47 343e
00000370: 9c39 503e e202 e83d a0f0 9a3d 1390 963d
00000380: 815f ce3d 9bfc 8abd 9ac1 423d 4d95 ff3d
00000390: 81d3 2f3e e436 f5bd 936e 1d3e 7d4e de3c
000003a0: 1e87 ddbd a694 e4bd 304f d2bc c134 623d
000003b0: 5226 adbd 72fe 31be a929 963e 7466 32be
000003c0: 72c0 c6bd 5fd6 113d b45c d9bc 585f 033e
000003d0: 761a 8d3d 65dd 4e3e 78c8 ddbd ff1f 4b3e
000003e0: ab67 973e f363 45be 323b 0e3e aa57 f93d
000003f0: 8187 493e 3039 ac3d 5f3a 26be 7a73 9bbd
-0.00041328458 4.259922e-05 -3.8683094e-05 -0.000672032 -0.0005883772 -0.00017829078 -0.00013825455 -0.00022046719
0.00015268003 -0.00010745672 9.048192e-05 -0.00019960008 -0.00018201809 -0.0001283885 -0.0005103965 -0.0005643825
0.00016229534 -0.000110627836 -4.5059327e-08 0.00010941755 8.361768e-05 -0.00020569659 -9.804389e-05 -0.0008808784
0.000234018 0.0001600754 -0.00038617954 -2.8904618e-05 8.460328e-05 -5.8448146e-05 1.7696711e-05 -0.00010289086
0.0004977141 3.4628225e-05 4.8523732e-05 6.142438e-05 0.00036919673 0.0005272329 -0.00022158657 0.00041451157
-0.0001633927 0.00037042145 -0.00037062095 -7.79528e-05 -0.00021394891 3.236691e-05 -0.0001104691 0.0010062242
-0.00030867578 -0.00058185286 -0.0002828853 -0.00015601302 -0.00055397005 2.9657604e-05 -0.00021142494 -0.000120421755
0.00047528342 -0.00016724302 2.0543359e-05 -0.0001909502 -1.1113633e-06 -5.8533464e-05 0.00016077104 0.00029849427
0.00051953195 -4.110598e-05 0.00025169968 -0.00060991046 4.929297e-05 -0.00016340737 -0.00055608584 0.00015247715
-0.00092634896 -0.0003092129 -8.948361e-05 -0.0004425088 -0.00029294845 -0.0007261518 -4.392838e-05 -1.1731601e-05
-8.238758e-05 -0.00028371305 0.0003644795 -0.00022316271 7.932008e-05 1.1878867e-05 -0.0011902011 -0.00067776476
-0.00018907677 9.49132e-05 0.0001805193 -0.00051178754 -9.277922e-05 9.405173e-05 0.0004928632 -0.00017316513
-0.00010487151 -0.00058789377 6.150601e-05 0.00019927033 0.0005427839 -0.00015712851 0.0001639968 -0.0005613535
3.638091e-05 0.00017609308 0.0004125329 3.2105425e-05 0.0001607769 -0.00010151276 0.0001029804 0.00021136369
-5.8220987e-05 -0.00019145546 -0.00034039025 9.723794e-05 5.776889e-05 3.8031474e-05 0.00047409706 -0.00027209596
7.92777e-05 0.00011427609 0.0005108589 0.00044971693 -4.065543e-05 -3.8544084e-05 -0.000146986 -0.00036952872
-0.0005249797 8.800004e-06 0.00031168343 -4.1027957e-05 -0.00012396749 -0.00089048577 -0.00020108322 -0.0005540928
0.0003981321 -0.00026524096 -0.00010772236 8.0212085e-05 2.0258643e-05 7.521785e-05 0.00015139392 0.0003684381
2.5622162e-06 0.00011001486 -0.00048727286 -1.9056275e-05 0.0004931332 8.550696e-05 5.6706685e-06 0.00024435142
5.6008663e-05 -0.00030846387 -0.00013808499 -3.858745e-05 -0.0008349203 -4.3967906e-05 7.656051e-05 0.00048349643
-0.10177285 0.1551311 -0.15664802 -0.09586174 0.071580246 0.19032273 -0.13060252 -0.11192019
-0.18021779 -0.042477336 0.14365608 -0.20538145 -0.15253766 0.08076383 0.2041161 0.1905252
0.11233025 -0.07510676 0.19944377 -0.18136722 -0.19215661 -0.06488517 -0.22934902 -0.17815782
0.11902374 -0.30511355 0.07592869 -0.06156995 0.06919355 0.16954367 0.15137038 0.31686082
-0.18322232 0.27029094 0.1601835 -0.14218214 -0.15048893 -0.18170708 -0.1640114 -0.19001178
-0.21053606 -0.17731485 -0.11467008 0.20434034 -0.006421438 -0.16408491 0.0472317 -0.09129845
-0.12561491 0.22693105 -0.1254919 -0.052427944 -0.0041534263 -0.18934171 -0.049891055 -0.0057032653
-0.15355444 0.057048235 0.05097907 0.17605253 0.20334476 0.11328675 0.07565427 0.07351699
0.1007681 -0.06786462 0.047547914 0.12479649 0.17170526 -0.1197336 0.15374212 0.027137036
-0.10816787 -0.11161165 -0.025672525 0.05522609 -0.08454575 -0.1738222 0.2932866 -0.17421895
-0.09704675 0.03560483 -0.026533462 0.1282934 0.06889813 0.20201643 -0.10829252 0.19836424
0.2957128 -0.19276409 0.13889769 0.12174924 0.19680597 0.08409345 -0.16233204 -0.07590385

fc2.0.bias f4 [5]
00000000: da0d 68ba 7020 9a3d 7904 7b3f d1a7 38be
00000010: c8c9 58be
-0.00088521617 0.07525718 0.980537 -0.18032767 -0.21170723
